weight/RE33_4_dim/front_RE33_4_PSL-MOBO.npy (npy, 288128 bytes, 1 tensors)

array f8 [40, 300, 3]
0	0xbffb9a0ad5222a00	-1.7251079869771502
1	0xbff6a7430903f600	-1.4158354141394511
2	0x4007d76466dad3e8	2.980171969941228
3	0xbffbac625c804b00	-1.7295859921766237
4	0xbff62270cd9acb00	-1.3834083587104828
5	0x4007c8929ce7b300	2.9729358919342985
6	0xbffbbbd16a80a600	-1.7333540115599817
7	0xbff52edfa0011900	-1.3239437341849793
8	0x4007b3c83d1466d8	2.9627842685557475
9	0xbffbc534fd27ec00	-1.7356462372688384
10	0xbff37982e6012200	-1.217165850119386
11	0x4007a485b15eac10	2.955333123876251
12	0xbffbbf78cf040100	-1.734246071486325
13	0xbff11591cf756800	-1.0677660087444565
14	0x400790ad79d9a150	2.945643379167599
15	0xbffbb76ed30bc400	-1.73228342475727
16	0xbfec74b57036e000	-0.8892466727911597
17	0x40076cec6bf105e0	2.9281853135041587
18	0xbffbb248bd1add00	-1.7310264002715599
19	0xbfe73a8a51258800	-0.7258960328001649
20	0x40073536328efb10	2.900982279766488
21	0xbffba68e13e4a900	-1.7281628396108886
22	0xbfe32defb1943200	-0.5993574589097648
23	0x4006eb7e2415d440	2.8649866885339463
24	0xbffb91ce983dac00	-1.723097414675749
25	0xbfe0e3f6a74ca000	-0.5278275744976781
26	0x4006a8e7d79ecc58	2.8324734540306444
27	0xbffb7336cd352300	-1.7156284347458381
28	0xbfdec3aedf23f000	-0.4806935481171877
29	0x400667388d52dde8	2.8004008332170436
30	0xbffb4a6d86b68400	-1.7056708585953402
31	0xbfdcaf85b4246000	-0.4482130297851654
32	0x4006267715007470	2.7687818184627346
33	0xbffb2c8bed979800	-1.6983756333297606
34	0xbfdb2faed46e1800	-0.4247853350174182
35	0x40060d1ddf786248	2.7564046343434576
36	0xbffb0c9ba99f5d00	-1.6905781389121444
37	0xbfda2d68b8659c00	-0.40902154929648304
38	0x4005f76f30626b70	2.7458175449405005
39	0xbffae11a50fb7500	-1.6799567378396318
40	0xbfd9626969a41c00	-0.3966315776492024
41	0x4005d139013f93b0	2.7271595094229824
42	0xbffaa8cc25ca3800	-1.666210315338958
43	0xbfd8dbd391113800	-0.3884171406433552
44	0x40058d767d5ccc70	2.6940736574120407
45	0xbffa53e975b1ac00	-1.6454863164351536
46	0xbfd887a05d793000	-0.38327798012028325
47	0x400509b56ddbd9f8	2.629740579864343
48	0xbff9f16fdb781f00	-1.6214445660606884
49	0xbfd848c64ea27400	-0.37944181136282396
50	0x4004639ffa273948	2.548644975969328
51	0xbff9859032e88c00	-1.5951082218750798
52	0xbfd8135dc0b15800	-0.3761820203557136
53	0x4003a2d11166cf40	2.4545003280162803
54	0xbff906b8cfe50b00	-1.5641410942923244
55	0xbfd7d9e697ecc400	-0.37267460667050045
56	0x4002b522b9be66e0	2.3384451400023494
57	0xbff881ec57610700	-1.5317195332758615
58	0xbfd79f318dd17800	-0.36909140443265187
59	0x4001b00b4a711310	2.210959035468825
60	0xbff7d96e4250a400	-1.49058366684244
61	0xbfd76310f9894400	-0.36542152756470614
62	0x4000509555ccdae0	2.0393473342077044
63	0xbff6dafb0a4c4b00	-1.4284620668665298
64	0xbfd73f1139882000	-0.36322432154020134
65	0x3ffc2da687a85fd0	1.7611451434258818
66	0xbff4b63a706e0b00	-1.294489325694201
67	0xbfd77b4c9405b800	-0.36690058188730745
68	0x3ff216add89992c0	1.1305368863042276
69	0xbff225482064d800	-1.1341019883525405
70	0xbfd7c186d51da400	-0.37118693172538997
71	0x3fdabbcdce81dc80	0.41771264235234895
72	0xbfedaeea5febe600	-0.9276019929376957
73	0xbfd9226ab11bd800	-0.39272563262727544
74	0xbfcfcf4a27a2ba80	-0.2485134786160934
75	0xbff867eb1deaf800	-1.5253707092920195
76	0xbfdf25376362f400	-0.48664650636402484
77	0x40006b2b3d419dc0	2.0523285661363104
78	0xbff76a72cb1bdc00	-1.4634883817614082
79	0xbfdabb2fce76b400	-0.4176749721762576
80	0x3ffda39478f7d800	1.8524365163152652
81	0xbff898f12722a800	-1.5373393563008904
82	0xbfe09d2e7d1de200	-0.5191872066198471
83	0x4000cb03cdd0b940	2.099128349239578
84	0xbff6eb2925e76700	-1.432412288725061
85	0xbfda4bb39a2b9000	-0.4108704572265651
86	0x3ffba6e83e56e700	1.7282488284240003
87	0xbff4667c85155d00	-1.2750210951397207
88	0xbfd9058cd8be8000	-0.3909637562410353
89	0x3ff0a08bbdc7a900	1.0391957677152845
90	0xbff5c028f4882900	-1.3594140579248801
91	0xbfd9a9d94b172000	-0.4009917481712364
92	0x3ff6a9bb5a142f30	1.4164384382920154
93	0xbff8304940922b00	-1.5117886087707006
94	0xbfdda633cc62dc00	-0.4632691856344877
95	0x40000f4b45b71428	2.0074677893158146
96	0xbff3613a048dd800	-1.211236970700611
97	0xbfd8c4bccdac6400	-0.38700790486615233
98	0x3fe81e94edc16aa0	0.7537331241286047
99	0xbff7f91232d23100	-1.4983083710858978
100	0xbfdc76ef88e60400	-0.4447592579745674
101	0x3fff78232fa4bdd0	1.966830431087022
102	0xbff7b7d5d383e300	-1.4823816549598519
103	0xbfdb7acb650c2800	-0.42936978214186183
104	0x3ffeae2d82b1b460	1.9175238709679192
105	0xbff8cbb011944000	-1.549728459041944
106	0xbfe2223a20167a00	-0.5666781069483591
107	0x400149fd93011d50	2.1611281857218856
108	0xbff105283421a900	-1.0637590443025715
109	0xbfd90018f3596400	-0.39063094868248527
110	0x3fc470759c19dc00	0.1596819889270762
111	0xbff64f5408940400	-1.3943672499738113
112	0xbfd9fdf70995ec00	-0.40612579284760386
113	0x3ff9151c9140cb30	1.567654197115825
114	0xbff514d490fc6200	-1.3175855315695344
115	0xbfd95c4699c8f000	-0.3962570668988974
116	0x3ff3b0eeca9efee0	1.2306964793096355
117	0xbff8effd6693ea00	-1.5585912711090941
118	0xbfe450dc9bc86e00	-0.6348708193431207
119	0x4001c95af05c4350	2.2233179834515013
120	0xbff90e17c5fa8d00	-1.5659406407874599
121	0xbfe7fdd7662d2400	-0.7497364993697602
122	0x40026a54d0198cd0	2.3019195802495247
123	0xbff93fbd40a57800	-1.578061344647267
124	0xbff56c7f54002e00	-1.3389886170651835
125	0x40043d7a6f3ec068	2.530018681623961
126	0xbff94492f1482c00	-1.5792416977953962
127	0xbff6628e932bf400	-1.3990617512602057
128	0x40048e16201b1250	2.5693781383763863
129	0xbff91ba93c865200	-1.5692531933065084
130	0xbff1639811684d00	-1.086814945218805
131	0x40036a4cb7393ed0	2.4269041361184023
132	0xbff9299dec87ab00	-1.572660373635415
133	0xbff3c9578707a200	-1.2366557383157897
134	0x4003d0e801a87a08	2.47700501723671
135	0xbff90fab7cefa300	-1.5663256531062757
136	0xbfed3493581f9000	-0.9126679154546764
137	0x4002ed03f21f0528	2.365730182239208
138	0xbff941daa8ea3e00	-1.5785776708834192
139	0xbff6e809347c9000	-1.4316494035965661
140	0x4004c5c66d59d840	2.5965698760074076
141	0xbff4a661e58e2900	-1.2906207053188723
142	0xbfdbcfbf7b75d800	-0.43455493027374814
143	0x3ff1cff09c86b310	1.1132665743163592
144	0xbff16a5cec51bd00	-1.0884675246450684
145	0xbfd999edb9c0ec00	-0.40002005710601907
146	0x3fd099a5031f4b80	0.25937772087961974
147	0xbff51f29d863f700	-1.320108266139357
148	0xbfdc9e729a5e5400	-0.4471708781723578
149	0x3ff3d42981326d00	1.2392973944432129
150	0xbff646e6e63e3600	-1.3923100465648304
151	0xbfe16197c26ff800	-0.5431631848912275
152	0x3ff8ccf9e8447580	1.5500430176683437
153	0xbff607267827fe00	-1.3767456716158222
154	0xbfe0600088013a00	-0.5117190033286647
155	0x3ff7a60eb30b73d0	1.4780413621840474
156	0xbfe9f6455055b600	-0.8113123482741571
157	0xbfd9ed919ddc5800	-0.40512504974446983
158	0xbfdcbb2b5a0dc200	-0.4489239100867337
159	0xbfee80925e23c800	-0.9531947935740845
160	0xbfd9b9a8a2c32c00	-0.4019567098118273
161	0xbfc6953796949380	-0.17642874577100187
162	0xbff40e4411ea8600	-1.2534828853462159
163	0xbfdb3fe58d249000	-0.4257749441478609
164	0x3fee7abb7543cba0	0.952481965096343
165	0xbff5c70ee9baaa00	-1.3610982065243888
166	0xbfdf1bda54233c00	-0.4860750028282723
167	0x3ff691c48eb7b2d0	1.4105878424554028
168	0xbff57ad70ed3b200	-1.3424902514626638
169	0xbfddc326595e4400	-0.46503599860540135
170	0x3ff554006c941680	1.3330082169863147
171	0xbff695fbfe427c00	-1.4116172725696288
172	0xbfe2d8495c426800	-0.5889021684590716
173	0x3ffa611eef21d990	1.6487111416914537
174	0xbff37acfc419e500	-1.2174832973672096
175	0xbfdacf62851dc800	-0.41890776633874793
176	0x3fe9780b3fd32020	0.7959038015915247
177	0xbff23e587944c800	-1.1402210938508688
178	0xbfd9fbcca5abcc00	-0.4059936159021049
179	0x3fddd6137ba4c900	0.4661911685426645
180	0xbff6d607e28f7d00	-1.4272536134738516
181	0xbfe5124235d36a00	-0.6584788371358741
182	0x3ffc01ec415e1640	1.750469451276686
183	0xbff767cc0e9ce900	-1.4628410883729543
184	0xbff711057a926c00	-1.4416556156127172
185	0x40025c9bb9bb7c18	2.2952188978520205
186	0xbff2e11f93cbd200	-1.1799617551124584
187	0xbfda661bdc76a400	-0.41248222856171424
188	0x3fe44a1bae5d43a0	0.6340464025071135
189	0xbff6fea2a5d85f00	-1.4371668318107709
190	0xbfe84da8b14a7c00	-0.7594798529352147
191	0x3ffd96048ca9e440	1.8491254324601556
192	0xbff7009d39daf100	-1.4376499423952396
193	0xbfed5b028951b600	-0.9173596078887272
194	0x3fff085d040700d0	1.9395418317144966
195	0xbff71955d8175600	-1.4436853829441816
196	0xbff593c04c3a6500	-1.348572061315565
197	0x40014a5a983011c8	2.161305607764209
198	0xbff735252740ab00	-1.4504748853020715
199	0xbff68ece3df56b00	-1.4098646564731894
200	0x4001d24295c902b8	2.2276660634964536
201	0xbff705021e656300	-1.4387227237077127
202	0xbff3e69fff8fc500	-1.2438049300074567
203	0x4000bada1998bc40	2.091236305211652
204	0xbff6fc812b775c00	-1.4366466234112067
205	0xbff17bac2d751c00	-1.092693498199651
206	0x4000274c9322a2d0	2.0191890234894814
207	0xbff2e475b2855800	-1.1807763074370996
208	0xbfdc18ab80235000	-0.43900573266478204
209	0x3fe523d9757f19e0	0.6606261534550946
210	0xbff35c937ade4400	-1.2101015853443187
211	0xbfdcfb9e45401000	-0.4528575588485637
212	0x3fe950bfe86d5d60	0.7911071338266247
213	0xbfeccb30b3374200	-0.899803495436629
214	0xbfda1aabdef01c00	-0.40787789126665075
215	0xbfd31b965fc2a540	-0.29855880118937606
216	0xbff0555803f2f900	-1.0208358911764321
217	0xbfda0d0d50553c00	-0.40704663128866514
218	0x3f9e87dc01f88400	0.029815137501035593
219	0xbff3c44881da6200	-1.235420710791118
220	0xbfde3726e831f400	-0.4721162097483216
221	0x3fed0ba4acce8060	0.9076712966089069
222	0xbff4615a2f4ad500	-1.27376764749107
223	0xbfe0bb1591b96400	-0.5228374334502632
224	0x3ff1851d51b61ff0	1.094998664078954
225	0xbff41d33f14aee00	-1.257129614400469
226	0xbfdfb0d2b3891400	-0.4951674226070395
227	0x3ff02b1baf4b2060	1.0105244491005791
228	0xbff48df42ccea800	-1.2846566915782205
229	0xbfe1cb95a3854c00	-0.556101626755094
230	0x3ff2938948625d70	1.1610195949086481
231	0xbff4c7d90116a500	-1.2987909357564718
232	0xbfe33e6c35317800	-0.6013699568682114
233	0x3ff3ff562c64dfd0	1.2498380407468979
234	0xbff24d4ba220da00	-1.143870957673812
235	0xbfdb723bc19ab400	-0.4288472548167306
236	0x3fe019c6c0c0cfe0	0.5031465306005849
237	0xbfe84b2e1d4ec200	-0.7591772625365252
238	0xbfda50cb196f4c00	-0.41118123515951766
239	0xbfdfcaf3e2d9a500	-0.49676224854790973
240	0xbff526abc0620800	-1.3219411387403852
241	0xbfe5805aec1eb200	-0.6719183551518313
242	0x3ff6431f17b5c9c0	1.3913870741058503
243	0xbff559d5da681700	-1.3344324618823862
244	0xbfe8a3240ae3ca00	-0.7699146473590304
245	0x3ff82b0d6e037aa0	1.5105108544736723
246	0xbff565465a4e9500	-1.3372252967467944
247	0xbfed5889076e0600	-0.9170575280297157
248	0x3ff9f48038a705d0	1.622192593859257
249	0xbff1a343ae83c200	-1.1023594681720397
250	0xbfdaf6353998f000	-0.4212773382639625
251	0x3fd5635f4a35bd00	0.3341901993471339
252	0xbff0fce750430f00	-1.0617440352661447
253	0xbfda843504e67800	-0.4143192813734231
254	0x3fc6b01acb53be80	0.17724928787309935
255	0xbff5600cd8f49400	-1.3359497523135815
