weight/ablation_DTLZ2_2stage/front_DTLZ2_6_2_stage_50_warmup.npy (npy, 388928 bytes, 1 tensors)

array f8 [54, 300, 3]
0	0x3fa410f15155d800	0.03919176214087372
1	0x3faf03f77d3b8980	0.06057713893621308
2	0x3ff68fd7ab822400	1.4101177882714637
3	0x3f6a399825dee000	0.0032012912406251814
4	0x3fba3d7b21708740	0.10250062528987502
5	0x3ff55ac0c7da3780	1.3346565062269917
6	0xbfa3d79196944400	-0.03875403369068664
7	0x3fb9f31e39a96800	0.10136593730695154
8	0x3ff40dcd696bba00	1.2533697240829724
9	0xbfae399c074b1a00	-0.05903327549963322
10	0x3fb72c8d81f6cb80	0.09052357123327504
11	0x3ff2c56de32ad880	1.173200499889873
12	0xbfadad0839c1c200	-0.05796075539626955
13	0x3fb976aa1053f400	0.09946692370063204
14	0x3ff1c82564a7bd80	1.1113637859196785
15	0xbfa9e404cfbf7c00	-0.05056777034746318
16	0x3fc035cb6ff36ea0	0.12664168325760716
17	0x3ff12f1eb0dee600	1.0740038784991839
18	0xbfa65b09e641c500	-0.04366331992867778
19	0x3fc54a3a3f883060	0.16632774450443133
20	0x3ff0d59707cefe00	1.0521459870359422
21	0xbfa2d9d71fd2a900	-0.03681823981726673
22	0x3fcce949c2af4e80	0.22586938863843287
23	0x3ff0829a84df0d80	1.0318856420788904
24	0xbfa04a6e89c0ed00	-0.031817869487406725
25	0x3fd34660a4e85bf0	0.3011705027033136
26	0x3ff016af1c159c00	1.0055380913779572
27	0xbf9fbad50f268400	-0.030986146020612892
28	0x3fd945f4366dd710	0.3948946506055657
29	0x3feef6238b2c0300	0.9675462454034403
30	0xbfa1cdc8d3d84e00	-0.03477313600538068
31	0x3fe03e3c8f7731a8	0.5075972368299988
32	0x3fecfcfc9e0ba700	0.9058821760965827
33	0xbfa50189e0790f00	-0.04102736344478153
34	0x3fe41c6d59726c58	0.6284701106082009
35	0x3fea0a8e52ecb700	0.8137885684606943
36	0xbfa74e984b8d8b00	-0.04552150652195586
37	0x3fe79090aa826750	0.7363971071492674
38	0x3fe6869cfac94400	0.7039322755973672
39	0xbfa82f389413f600	-0.047235267711567275
40	0x3fea51b3d8a78940	0.8224734527141564
41	0x3fe301c63d7a3500	0.5939665985803515
42	0xbfa83af0eb97ef00	-0.047324684866877575
43	0x3fec75a53ead3110	0.8893610214377379
44	0x3fdf353668936600	0.48762283527830164
45	0xbfa8325b16d5b400	-0.04725918439621779
46	0x3fee22a09e9ec0b8	0.9417269800233248
47	0x3fd8a92497521200	0.3853236654033765
48	0xbfa8564b0f3ae000	-0.047533364876869655
49	0x3fef47427c271b78	0.977448694692483
50	0x3fd347f261054800	0.3012662837473954
51	0xbfa889f3c28b3500	-0.04792749166299792
52	0x3ff011dc46fb2814	1.0043604633997392
53	0x3fcd385c05e77000	0.22828245437892747
54	0xbfa8c3427a2a3c00	-0.04836471310874657
55	0x3ff06de11763f7ac	1.0268259919825864
56	0x3fc4a19ee1bc3800	0.16118227026203158
57	0xbfa8d2048bc07a80	-0.04847730833011088
58	0x3ff0c295cacefb58	1.0475061342437666
59	0x3fba6c71745fb000	0.10321721163899156
60	0xbfa89df770882b00	-0.04808018921547408
61	0x3ff1102cf892225c	1.0664491376684486
62	0x3faee5c554103000	0.06034676219141488
63	0xbfa84262a9015e00	-0.04738148034146761
64	0x3ff14eede6db2334	1.0817698495686274
65	0x3fa28cdce4ab3000	0.03623094836584073
66	0xbfa7cd2a0538ef00	-0.04648715318441354
67	0x3ff18791f1a5708c	1.0955981673533044
68	0x3f96efc571d2c000	0.02239902980062425
69	0xbfa74f6d270e4900	-0.0455278501678027
70	0x3ff1bb76207351e4	1.1082669513317507
71	0x3f8db71b88270000	0.014509406178035533
72	0xbfa43da31786ca80	-0.039532753583803704
73	0x3ff19f6476fbd170	1.1014141700553317
74	0x3f90ca27937cc000	0.01639615857783383
75	0xbf96c41dabca8400	-0.02223249779729386
76	0x3fe34575975eb2e8	0.6022289234584521
77	0x3fea5f7994ff8200	0.8241546545141887
78	0xbfa2b632ff606f00	-0.03654631965056687
79	0x3fed6e53a11ec830	0.9197176119689683
80	0x3fdb8f252f239c00	0.4306118927328839
81	0xbf8c58de71c59400	-0.013841379019774891
82	0x3fdf52e182f2d5e0	0.48943364894816277
83	0x3fecc72d95fbe000	0.8993137292263782
84	0xbfa3506e8f15e800	-0.03772302147531548
85	0x3feeb1f9f5a9c6c0	0.9592256353482398
86	0x3fd5f0eeb3795400	0.3428303482699562
87	0xbfa54c06846d9c00	-0.04159565321497638
88	0x3ff0e6b8682c5040	1.0563282078992557
89	0x3fb20a3b585b9000	0.070468625137039
90	0xbfa4cb3914b8c200	-0.04061296823454441
91	0x3ff03baec415a14c	1.014570966677712
92	0x3fc7f685a6f81800	0.18721075680531385
93	0xbf9dfbfbb60dd400	-0.02928155230206997
94	0x3fe68c081defd378	0.7045937142089391
95	0x3fe77a93314a2b00	0.7337127649965112
96	0xbfa51132b5dac480	-0.04114683599380786
97	0x3ff128cc9b647e48	1.072460753442913
98	0x3fa54e68b6f61000	0.04161383851445066
99	0xbfa1507e7996db00	-0.033817245809975915
100	0x3fe958d7e7e569a8	0.7920951394292404
101	0x3fe44e2cf409ab00	0.6345429197657211
102	0xbfa2187b650ad400	-0.03534303291727525
103	0x3febad2b9afb9f28	0.8648889567384446
104	0x3fe0f53f290d7f00	0.5299373437701149
105	0xbf8229557fa1f800	-0.008867900807896234
106	0x3fd8b82f6f3a03e0	0.3862417780110814
107	0x3fee5f16397d1100	0.9491072771857318
108	0xbfa4941fb5bad300	-0.04019259541875009
109	0x3ff1658aca89ceac	1.0872905646946647
110	0x3f99d039436c4000	0.02520837282196453
111	0xbfa402770dbf6100	-0.03908130686585487
112	0x3fefad5431caf1b0	0.989908311130014
113	0x3fd0c75b48989c00	0.2621677597948633
114	0xbfa51f2c7020a280	-0.041253460586010426
115	0x3ff098a1458bbe2c	1.0372631756434982
116	0x3fbe79d54a071800	0.11904652650181902
117	0xbf8259dc52a12000	-0.008960458060883525
118	0x3fd315259e2729c0	0.298165707060118
119	0x3fef6af1367bd600	0.98180447236399
120	0xbf89293953d6b800	-0.01228565966706796
121	0x3fcd1fc5aad1fb60	0.22753210869629026
122	0x3ff00fcf1b95d180	1.0038596227214782
123	0x3f98a3a8dd0fa400	0.02406181191682677
124	0x3fb851986d7b4680	0.09499504731072683
125	0x3ff3170fc7e4bf00	1.1931302841512093
126	0x3fa76a412a019400	0.045732532861428865
127	0x3fa80db51db51500	0.04697957980764933
128	0x3ff4891935aa9980	1.283471307405847
129	0xbf8ca79f5e816000	-0.013991589614462896
130	0x3fc16efca39ba6c0	0.13619955052063482
131	0x3ff0d7081beeef00	1.0524979678293107
132	0xbf5b7720a6fa8000	-0.0016763514394497747
133	0x3fbcdcef3a1a5f40	0.11274619263201391
134	0x3ff1cca86cf1f180	1.1124653106372477
135	0xbf8e4c0caabcf800	-0.01479349037219535
136	0x3fc6724a65e7f9a0	0.17536287284742702
137	0x3ff05ee9487a8f00	1.0231716948700864
138	0x3fa8f613b1777000	0.048752417958638716
139	0xbf93c4e03bda6700	-0.01930570950808086
140	0x3ff5e54a9801e880	1.3684793412963074
141	0xbf8b2ff6003f8800	-0.013275071985791698
142	0x3fee2a118bcba220	0.9426353197459925
143	0x3fd89bbcdfc10c00	0.3845054802988557
144	0xbf9bf903493df500	-0.02731709608587085
145	0x3ff103f0bb14bcfc	1.0634620006420041
146	0x3fa8b67ba1118000	0.04826723424116608
147	0xbf853586079ba400	-0.010355994326760154
148	0x3fecba0ed61e7288	0.8977121526728107
149	0x3fde7dc073dc0800	0.4764252788010026
150	0x3f92d4c85bc9f400	0.018389826395367237
151	0x3fe27170f5e8d0e0	0.5763478091162391
152	0x3feab0ac5c7ddf00	0.8340665632703974
153	0x3f78e1dda48c4800	0.00607477740483553
154	0x3fe57021af6ad548	0.6699379373664351
155	0x3fe8651d2e83b600	0.762343016480088
156	0xbf9b76d60a3b5c00	-0.026820511221412602
157	0x3ff188c062ebcc84	1.0958865989785247
158	0x3f92e912e6824000	0.018467231101169546
159	0xbf9be301f75f4200	-0.027233153079409433
160	0x3ff14719e973fdd8	1.0798586959134493
161	0x3f9d89f54e6f4000	0.02884658137537599
162	0xbf902caa0cd66200	-0.015795380624327393
163	0x3fef415bb8128c88	0.9767283053555653
164	0x3fd32451edfee600	0.2990917991806725
165	0xbf63d5fa8bd13000	-0.002421368930788148
166	0x3fe84512fe3e7030	0.7584319081975135
167	0x3fe597407dfcd500	0.6747133694358638
168	0xbf7d8101221fb000	-0.007203106333673048
169	0x3feac1c4a1a86088	0.8361533315064813
170	0x3fe2704c06b99e00	0.5762081271504371
171	0x3f9e6f4d4ddc7000	0.029721458318007876
172	0x3fdec7fac8681a50	0.48095578738176403
173	0x3fec78820293d700	0.8897104311315331
174	0xbf934784199cfa00	-0.018827499450020824
175	0x3ff014d08243120c	1.0050816620215555
176	0x3fcb55a6751cb400	0.21355133741727172
177	0xbf9a08db68befa00	-0.02542441202944623
178	0x3ff0c2f7c4d876a8	1.0475995721130094
179	0x3fb4c7e28528e800	0.08117500067683636
180	0x3fa1abe705403600	0.03451463641259167
181	0x3fd871021301abc0	0.3818974671946158
182	0x3fedde49b4402c00	0.9333847542305875
183	0x3fabb9835871bc00	0.054149727388782765
184	0xbfae36ec0b883b00	-0.05901277199528998
185	0x3ff51e02aba05180	1.319826765456213
186	0xbf96dddd9a437000	-0.022330725231640258
187	0x3ff0770eac4fad04	1.0290667277247971
188	0x3fc16181fa974400	0.13578819976694945
189	0x3fa2346e7d187e00	0.03555627133414063
190	0x3fd30d2c2adddb00	0.2976789873713841
191	0x3feec651661ded00	0.9617087358923584
192	0x3fa2d950596df000	0.036814223210029695
193	0x3fcd82d469ccbce0	0.2305551067924858
194	0x3fef6977cc2d5400	0.9816245067437421
195	0x3fb2a327ca478d00	0.07280205429519881
196	0x3fb007b40d69b100	0.06261754348242121
197	0x3ff21a850da2fb80	1.1314745457345623
198	0x3fb1538597b88100	0.06768069223517514
199	0xbf8369151b2cdc00	-0.00947777260954119
200	0x3ff3963158208900	1.224168152090499
201	0x3fb08b5a9927e800	0.06462637175710029
202	0x3fc03313d8010a60	0.12655876204560723
203	0x3ff0e2030d5a0000	1.0551786920113955
204	0x3fa82f61447ec400	0.04723648034212857
205	0x3fc66db6ac417b20	0.17522319231917383
206	0x3ff010c185277a00	1.0040908051811357
207	0x3fa2aec24bfb9900	0.03648955514454322
208	0x3feebef316fcd5f8	0.9608092736222593
209	0x3fd5c63cc905f200	0.3402244532697125
210	0x3fa62dc575ae2100	0.04331795751119394
211	0x3fed86643cbe1718	0.9226552187326176
212	0x3fdb61f452cc6400	0.42785366140157066
213	0x3f3cc6d9efb2c000	0.00043909855566948153
214	0x3ff127884f6932e8	1.0721514799108096
215	0x3fa0cf33f4014000	0.03283083299231748
216	0x3f775d1df449c000	0.0057040376747039545
217	0x3ff0e661ec30e12c	1.0562457300384933
218	0x3fac36abdfeaa000	0.05510460956912766
219	0x3fa96d7d4e8f8500	0.04966346343986494
220	0x3febdec4a66a5bd8	0.8709433794309644
221	0x3fe0b66756f2d600	0.5222660730566417
222	0x3fb0ac3c65922780	0.06512811164625809
223	0x3fe70b1db48e2c20	0.7201069380256548
224	0x3fe6c67e6fa27d00	0.711730211292803
225	0x3facadee94b5b500	0.05601449551873294
226	0x3fe9aa812c09f238	0.8020635471471627
227	0x3fe3db149bb8c800	0.6204932252351227
228	0x3fb43cab12bafa00	0.07905072409901237
229	0x3fe42a861b28eaa0	0.630190899893325
230	0x3fe94491309c7200	0.7896200131831961
231	0x3fb7dcf59809b500	0.0932153221308063
232	0x3fe13eae73a2c5e0	0.5389015444290486
233	0x3feb33ed0596e500	0.8500886067551221
234	0x3f9fcc66dfee2800	0.031053168695088118
235	0x3fefd6606c707b68	0.9949190252262783
236	0x3fcf25a3dcb88400	0.24333618428593695
237	0xbf5171f759fbe000	-0.0010647693197238794
238	0x3ff16a1b6cd75144	1.0884050609211764
239	0x3f950568dd9ee000	0.02052844860710934
240	0x3fbae2dfe23c8900	0.10502433083869178
241	0x3fdcc650d67e6830	0.449604234186725
242	0x3fec9cde4a8ec700	0.894148965473704
243	0x3fbd4cfe91414300	0.11445609136832147
244	0x3fd731efdc34fb80	0.3624229097803706
245	0x3feda393795a3100	0.9262177820360478
246	0x3fbd91781bdb4800	0.11550093345729806
247	0x3fd1e156edecb360	0.279378635738615
248	0x3fee639101cbb700	0.9496541056703052
249	0x3f99c4054f033400	0.025161822269001988
250	0x3ff05dbfb529e18c	1.022887904806427
251	0x3fc39464af712400	0.15296610418798195
252	0x3f90b58f1515c600	0.01631759229844043
253	0x3ff0a887191b31b8	1.0411444645607002
254	0x3fb7b6a042895800	0.09263040184427496
255	0x3fb9a7b9dc0e7a00	0.10021554586862891
